…
Model with filters number 64, epochs=20, training accuracy=0.97566, validation accuracy=0.94263.
Model with filters number 128, epochs=15, training accuracy=0.98828, validation accuracy=0.94467.
Model with filters number 512, epochs=10, training accuracy=0.99647, validation accuracy=0.95465.
Model with filters number 1024, epochs=5, training accuracy=0.99236, validation accuracy=0.94671.

Model: "sequential_3"
_________________________________________________________________
Layer (type)                 Output Shape              Param #   
=================================================================
conv2d_12 (Conv2D)           (None, 32, 32, 512)       14336     
_________________________________________________________________
conv2d_13 (Conv2D)           (None, 30, 30, 512)       2359808   
_________________________________________________________________
max_pooling2d_9 (MaxPooling2 (None, 15, 15, 512)       0         
_________________________________________________________________
dropout_12 (Dropout)         (None, 15, 15, 512)       0         
_________________________________________________________________
conv2d_14 (Conv2D)           (None, 15, 15, 512)       2359808   
_________________________________________________________________
max_pooling2d_10 (MaxPooling (None, 7, 7, 512)         0         
_________________________________________________________________
dropout_13 (Dropout)         (None, 7, 7, 512)         0         
_________________________________________________________________
conv2d_15 (Conv2D)           (None, 7, 7, 512)         2359808   
_________________________________________________________________
max_pooling2d_11 (MaxPooling (None, 3, 3, 512)         0         
_________________________________________________________________
dropout_14 (Dropout)         (None, 3, 3, 512)         0         
_________________________________________________________________
flatten_3 (Flatten)          (None, 4608)              0         
_________________________________________________________________
dense_6 (Dense)              (None, 512)               2359808   
_________________________________________________________________
dropout_15 (Dropout)         (None, 512)               0         
_________________________________________________________________
dense_7 (Dense)              (None, 43)                22059     
=================================================================
Total params: 9,475,627
Trainable params: 9,475,627
Non-trainable params: 0
_________________________________________________________________


Model with filters number 64, epochs=20, learning rate=0.00010, training accuracy=0.99325, validation accuracy=0.96871.
Model with filters number 128, epochs=15, learning rate=0.00010, training accuracy=0.99655, validation accuracy=0.97098.
Model with filters number 256, epochs=10, learning rate=0.00010, training accuracy=0.99690, validation accuracy=0.96961.
Model with filters number 512, epochs=5, learning rate=0.00010, training accuracy=0.99330, validation accuracy=0.96599.

Model: "sequential_7"
_________________________________________________________________
Layer (type)                 Output Shape              Param #   
=================================================================
conv2d_28 (Conv2D)           (None, 32, 32, 256)       7168      
_________________________________________________________________
conv2d_29 (Conv2D)           (None, 30, 30, 256)       590080    
_________________________________________________________________
max_pooling2d_21 (MaxPooling (None, 15, 15, 256)       0         
_________________________________________________________________
dropout_28 (Dropout)         (None, 15, 15, 256)       0         
_________________________________________________________________
conv2d_30 (Conv2D)           (None, 15, 15, 256)       590080    
_________________________________________________________________
max_pooling2d_22 (MaxPooling (None, 7, 7, 256)         0         
_________________________________________________________________
dropout_29 (Dropout)         (None, 7, 7, 256)         0         
_________________________________________________________________
conv2d_31 (Conv2D)           (None, 7, 7, 256)         590080    
_________________________________________________________________
max_pooling2d_23 (MaxPooling (None, 3, 3, 256)         0         
_________________________________________________________________
dropout_30 (Dropout)         (None, 3, 3, 256)         0         
_________________________________________________________________
flatten_7 (Flatten)          (None, 2304)              0         
_________________________________________________________________
dense_14 (Dense)             (None, 512)               1180160   
_________________________________________________________________
dropout_31 (Dropout)         (None, 512)               0         
_________________________________________________________________
dense_15 (Dense)             (None, 43)                22059     
=================================================================
Total params: 2,979,627
Trainable params: 2,979,627
Non-trainable params: 0
_________________________________________________________________

Model with filters number 64, epochs=30, learning rate=0.00010, batch_size=16 training accuracy=0.99632, validation accuracy=0.97120.
Model with filters number 128, epochs=25, learning rate=0.00010, batch_size=16 training accuracy=0.99833, validation accuracy=0.97211.
…
